…
	 dist_config          : configs/stl10/deit_b-red+deit.yaml
	 dist_pretrained      : 
	 epochs               : 300
	 learning_rate        : 0.01
	 lr_interval          : 0.6 0.8 0.9
	 lr_reduce            : 5
	 optimizer            : SGD
	 log                  : True
	 test_only            : False
	 dont_save            : False
 Missing keys : [], Unexpected Keys: []
 Info: Accuracy of loaded ANN model: 0.853375

 Model: DataParallel(
  (module): ReED(
    (student): Network(
      (net): DeiT(
        (to_patch_embedding): Sequential(
          (0): Rearrange('b c (h p1) (w p2) -> b (p1 p2 c) h w', p1=16, p2=16)
          (1): BatchNorm2d(768, eps=1e-05, momentum=0.1, affine=True, track_running_stats=True)
          (2): Conv2d(768, 768, kernel_size=(1, 1), stride=(1, 1))
          (3): BatchNorm2d(768, eps=1e-05, momentum=0.1, affine=True, track_running_stats=True)
        )
        (dropout): Dropout(p=0.0, inplace=False)
        (transformer): Transformer(
          (norm): LayerNorm((768,), eps=1e-05, elementwise_affine=True)
          (layers): ModuleList(
            (0-11): 12 x ModuleList(
              (0): Attention(
                (norm): LayerNorm((768,), eps=1e-05, elementwise_affine=True)
                (attend): Softmax(dim=-1)
                (dropout): Dropout(p=0.0, inplace=False)
                (to_qkv): Linear(in_features=768, out_features=2304, bias=False)
                (to_out): Sequential(
                  (0): Linear(in_features=768, out_features=768, bias=True)
                  (1): Dropout(p=0.0, inplace=False)
                )
              )
              (1): FeedForward(
                (net): Sequential(
                  (0): LayerNorm((768,), eps=1e-05, elementwise_affine=True)
                  (1): Linear(in_features=768, out_features=3072, bias=True)
                  (2): GELU(approximate='none')
                  (3): Dropout(p=0.0, inplace=False)
                  (4): Linear(in_features=3072, out_features=768, bias=True)
                  (5): Dropout(p=0.0, inplace=False)
                )
              )
            )
          )
        )
        (to_latent): Identity()
        (mlp_head): Linear(in_features=768, out_features=10, bias=True)
        (dist_head): Linear(in_features=768, out_features=10, bias=True)
      )
    )
    (teachers): ModuleList(
      (0): Network(
        (net): MobileNetV2(
          (features): Sequential(
            (0): Sequential(
              (0): Conv2d(3, 32, kernel_size=(3, 3), stride=(1, 1), padding=(1, 1), bias=False)
              (1): BatchNorm2d(32, eps=1e-05, momentum=0.1, affine=True, track_running_stats=True)
              (2): ReLU6(inplace=True)
            )
            (1): InvertedResidual(
              (conv): Sequential(
                (0): Conv2d(32, 32, kernel_size=(3, 3), stride=(1, 1), padding=(1, 1), groups=32, bias=False)
                (1): BatchNorm2d(32, eps=1e-05, momentum=0.1, affine=True, track_running_stats=True)
                (2): ReLU6(inplace=True)
                (3): Conv2d(32, 16, kernel_size=(1, 1), stride=(1, 1), bias=False)
                (4): BatchNorm2d(16, eps=1e-05, momentum=0.1, affine=True, track_running_stats=True)
              )
            )
            (2): InvertedResidual(
              (conv): Sequential(
                (0): Conv2d(16, 96, kernel_size=(1, 1), stride=(1, 1), bias=False)
                (1): BatchNorm2d(96, eps=1e-05, momentum=0.1, affine=True, track_running_stats=True)
                (2): ReLU6(inplace=True)
                (3): Conv2d(96, 96, kernel_size=(3, 3), stride=(2, 2), padding=(1, 1), groups=96, bias=False)
                (4): BatchNorm2d(96, eps=1e-05, momentum=0.1, affine=True, track_running_stats=True)
                (5): ReLU6(inplace=True)
                (6): Conv2d(96, 24, kernel_size=(1, 1), stride=(1, 1), bias=False)
                (7): BatchNorm2d(24, eps=1e-05, momentum=0.1, affine=True, track_running_stats=True)
              )
            )
            (3): InvertedResidual(
              (conv): Sequential(
                (0): Conv2d(24, 144, kernel_size=(1, 1), stride=(1, 1), bias=False)
                (1): BatchNorm2d(144, eps=1e-05, momentum=0.1, affine=True, track_running_stats=True)
                (2): ReLU6(inplace=True)
                (3): Conv2d(144, 144, kernel_size=(3, 3), stride=(1, 1), padding=(1, 1), groups=144, bias=False)
                (4): BatchNorm2d(144, eps=1e-05, momentum=0.1, affine=True, track_running_stats=True)
                (5): ReLU6(inplace=True)
                (6): Conv2d(144, 24, kernel_size=(1, 1), stride=(1, 1), bias=False)
                (7): BatchNorm2d(24, eps=1e-05, momentum=0.1, affine=True, track_running_stats=True)
              )
            )
            (4): InvertedResidual(
              (conv): Sequential(
                (0): Conv2d(24, 144, kernel_size=(1, 1), stride=(1, 1), bias=False)
                (1): BatchNorm2d(144, eps=1e-05, momentum=0.1, affine=True, track_running_stats=True)
                (2): ReLU6(inplace=True)
                (3): Conv2d(144, 144, kernel_size=(3, 3), stride=(2, 2), padding=(1, 1), groups=144, bias=False)
                (4): BatchNorm2d(144, eps=1e-05, momentum=0.1, affine=True, track_running_stats=True)
                (5): ReLU6(inplace=True)
                (6): Conv2d(144, 32, kernel_size=(1, 1), stride=(1, 1), bias=False)
                (7): BatchNorm2d(32, eps=1e-05, momentum=0.1, affine=True, track_running_stats=True)
              )
            )
            (5): InvertedResidual(
              (conv): Sequential(
                (0): Conv2d(32, 192, kernel_size=(1, 1), stride=(1, 1), bias=False)
                (1): BatchNorm2d(192, eps=1e-05, momentum=0.1, affine=True, track_running_stats=True)
                (2): ReLU6(inplace=True)
                (3): Conv2d(192, 192, kernel_size=(3, 3), stride=(1, 1), padding=(1, 1), groups=192, bias=False)
                (4): BatchNorm2d(192, eps=1e-05, momentum=0.1, affine=True, track_running_stats=True)
                (5): ReLU6(inplace=True)
                (6): Conv2d(192, 32, kernel_size=(1, 1), stride=(1, 1), bias=False)
                (7): BatchNorm2d(32, eps=1e-05, momentum=0.1, affine=True, track_running_stats=True)
              )
            )
            (6): InvertedResidual(
              (conv): Sequential(
                (0): Conv2d(32, 192, kernel_size=(1, 1), stride=(1, 1), bias=False)
                (1): BatchNorm2d(192, eps=1e-05, momentum=0.1, affine=True, track_running_stats=True)
                (2): ReLU6(inplace=True)
                (3): Conv2d(192, 192, kernel_size=(3, 3), stride=(1, 1), padding=(1, 1), groups=192, bias=False)
                (4): BatchNorm2d(192, eps=1e-05, momentum=0.1, affine=True, track_running_stats=True)
                (5): ReLU6(inplace=True)
                (6): Conv2d(192, 32, kernel_size=(1, 1), stride=(1, 1), bias=False)
                (7): BatchNorm2d(32, eps=1e-05, momentum=0.1, affine=True, track_running_stats=True)
              )
            )
            (7): InvertedResidual(
              (conv): Sequential(
                (0): Conv2d(32, 192, kernel_size=(1, 1), stride=(1, 1), bias=False)
                (1): BatchNorm2d(192, eps=1e-05, momentum=0.1, affine=True, track_running_stats=True)
                (2): ReLU6(inplace=True)
                (3): Conv2d(192, 192, kernel_size=(3, 3), stride=(2, 2), padding=(1, 1), groups=192, bias=False)
                (4): BatchNorm2d(192, eps=1e-05, momentum=0.1, affine=True, track_running_stats=True)
                (5): ReLU6(inplace=True)
                (6): Conv2d(192, 64, kernel_size=(1, 1), stride=(1, 1), bias=False)
                (7): BatchNorm2d(64, eps=1e-05, momentum=0.1, affine=True, track_running_stats=True)
              )
            )
            (8): InvertedResidual(
              (conv): Sequential(
                (0): Conv2d(64, 384, kernel_size=(1, 1), stride=(1, 1), bias=False)
                (1): BatchNorm2d(384, eps=1e-05, momentum=0.1, affine=True, track_running_stats=True)
                (2): ReLU6(inplace=True)
                (3): Conv2d(384, 384, kernel_size=(3, 3), stride=(1, 1), padding=(1, 1), groups=384, bias=False)
                (4): BatchNorm2d(384, eps=1e-05, momentum=0.1, affine=True, track_running_stats=True)
                (5): ReLU6(inplace=True)
                (6): Conv2d(384, 64, kernel_size=(1, 1), stride=(1, 1), bias=False)
                (7): BatchNorm2d(64, eps=1e-05, momentum=0.1, affine=True, track_running_stats=True)
              )
            )
            (9): InvertedResidual(
              (conv): Sequential(
                (0): Conv2d(64, 384, kernel_size=(1, 1), stride=(1, 1), bias=False)
                (1): BatchNorm2d(384, eps=1e-05, momentum=0.1, affine=True, track_running_stats=True)
                (2): ReLU6(inplace=True)
                (3): Conv2d(384, 384, kernel_size=(3, 3), stride=(1, 1), padding=(1, 1), groups=384, bias=False)
                (4): BatchNorm2d(384, eps=1e-05, momentum=0.1, affine=True, track_running_stats=True)
                (5): ReLU6(inplace=True)
                (6): Conv2d(384, 64, kernel_size=(1, 1), stride=(1, 1), bias=False)
                (7): BatchNorm2d(64, eps=1e-05, momentum=0.1, affine=True, track_running_stats=True)
              )
            )
            (10): InvertedResidual(
              (conv): Sequential(
                (0): Conv2d(64, 384, kernel_size=(1, 1), stride=(1, 1), bias=False)
                (1): BatchNorm2d(384, eps=1e-05, momentum=0.1, affine=True, track_running_stats=True)
                (2): ReLU6(inplace=True)
                (3): Conv2d(384, 384, kernel_size=(3, 3), stride=(1, 1), padding=(1, 1), groups=384, bias=False)
                (4): BatchNorm2d(384, eps=1e-05, momentum=0.1, affine=True, track_running_stats=True)
                (5): ReLU6(inplace=True)
                (6): Conv2d(384, 64, kernel_size=(1, 1), stride=(1, 1), bias=False)
                (7): BatchNorm2d(64, eps=1e-05, momentum=0.1, affine=True, track_running_stats=True)
              )
            )
            (11): InvertedResidual(
              (conv): Sequential(
                (0): Conv2d(64, 384, kernel_size=(1, 1), stride=(1, 1), bias=False)
                (1): BatchNorm2d(384, eps=1e-05, momentum=0.1, affine=True, track_running_stats=True)
                (2): ReLU6(inplace=True)
                (3): Conv2d(384, 384, kernel_size=(3, 3), stride=(1, 1), padding=(1, 1), groups=384, bias=False)
                (4): BatchNorm2d(384, eps=1e-05, momentum=0.1, affine=True, track_running_stats=True)
                (5): ReLU6(inplace=True)
                (6): Conv2d(384, 96, kernel_size=(1, 1), stride=(1, 1), bias=False)
                (7): BatchNorm2d(96, eps=1e-05, momentum=0.1, affine=True, track_running_stats=True)
              )
            )
            (12): InvertedResidual(
              (conv): Sequential(
                (0): Conv2d(96, 576, kernel_size=(1, 1), stride=(1, 1), bias=False)
                (1): BatchNorm2d(576, eps=1e-05, momentum=0.1, affine=True, track_running_stats=True)
                (2): ReLU6(inplace=True)
                (3): Conv2d(576, 576, kernel_size=(3, 3), stride=(1, 1), padding=(1, 1), groups=576, bias=False)
                (4): BatchNorm2d(576, eps=1e-05, momentum=0.1, affine=True, track_running_stats=True)
                (5): ReLU6(inplace=True)
                (6): Conv2d(576, 96, kernel_size=(1, 1), stride=(1, 1), bias=False)
                (7): BatchNorm2d(96, eps=1e-05, momentum=0.1, affine=True, track_running_stats=True)
              )
            )
            (13): InvertedResidual(
              (conv): Sequential(
                (0): Conv2d(96, 576, kernel_size=(1, 1), stride=(1, 1), bias=False)
                (1): BatchNorm2d(576, eps=1e-05, momentum=0.1, affine=True, track_running_stats=True)
                (2): ReLU6(inplace=True)
                (3): Conv2d(576, 576, kernel_size=(3, 3), stride=(1, 1), padding=(1, 1), groups=576, bias=False)
                (4): BatchNorm2d(576, eps=1e-05, momentum=0.1, affine=True, track_running_stats=True)
                (5): ReLU6(inplace=True)
                (6): Conv2d(576, 96, kernel_size=(1, 1), stride=(1, 1), bias=False)
                (7): BatchNorm2d(96, eps=1e-05, momentum=0.1, affine=True, track_running_stats=True)
              )
            )
            (14): InvertedResidual(
              (conv): Sequential(
                (0): Conv2d(96, 576, kernel_size=(1, 1), stride=(1, 1), bias=False)
                (1): BatchNorm2d(576, eps=1e-05, momentum=0.1, affine=True, track_running_stats=True)
                (2): ReLU6(inplace=True)
                (3): Conv2d(576, 576, kernel_size=(3, 3), stride=(2, 2), padding=(1, 1), groups=576, bias=False)
                (4): BatchNorm2d(576, eps=1e-05, momentum=0.1, affine=True, track_running_stats=True)
                (5): ReLU6(inplace=True)
                (6): Conv2d(576, 160, kernel_size=(1, 1), stride=(1, 1), bias=False)
                (7): BatchNorm2d(160, eps=1e-05, momentum=0.1, affine=True, track_running_stats=True)
              )
            )
            (15): InvertedResidual(
              (conv): Sequential(
                (0): Conv2d(160, 960, kernel_size=(1, 1), stride=(1, 1), bias=False)
                (1): BatchNorm2d(960, eps=1e-05, momentum=0.1, affine=True, track_running_stats=True)
                (2): ReLU6(inplace=True)
                (3): Conv2d(960, 960, kernel_size=(3, 3), stride=(1, 1), padding=(1, 1), groups=960, bias=False)
                (4): BatchNorm2d(960, eps=1e-05, momentum=0.1, affine=True, track_running_stats=True)
                (5): ReLU6(inplace=True)
                (6): Conv2d(960, 160, kernel_size=(1, 1), stride=(1, 1), bias=False)
                (7): BatchNorm2d(160, eps=1e-05, momentum=0.1, affine=True, track_running_stats=True)
              )
            )
            (16): InvertedResidual(
              (conv): Sequential(
                (0): Conv2d(160, 960, kernel_size=(1, 1), stride=(1, 1), bias=False)
                (1): BatchNorm2d(960, eps=1e-05, momentum=0.1, affine=True, track_running_stats=True)
                (2): ReLU6(inplace=True)
                (3): Conv2d(960, 960, kernel_size=(3, 3), stride=(1, 1), padding=(1, 1), groups=960, bias=False)
                (4): BatchNorm2d(960, eps=1e-05, momentum=0.1, affine=True, track_running_stats=True)
                (5): ReLU6(inplace=True)
                (6): Conv2d(960, 160, kernel_size=(1, 1), stride=(1, 1), bias=False)
                (7): BatchNorm2d(160, eps=1e-05, momentum=0.1, affine=True, track_running_stats=True)
              )
            )
            (17): InvertedResidual(
              (conv): Sequential(
                (0): Conv2d(160, 960, kernel_size=(1, 1), stride=(1, 1), bias=False)
                (1): BatchNorm2d(960, eps=1e-05, momentum=0.1, affine=True, track_running_stats=True)
                (2): ReLU6(inplace=True)
                (3): Conv2d(960, 960, kernel_size=(3, 3), stride=(1, 1), padding=(1, 1), groups=960, bias=False)
                (4): BatchNorm2d(960, eps=1e-05, momentum=0.1, affine=True, track_running_stats=True)
                (5): ReLU6(inplace=True)
                (6): Conv2d(960, 320, kernel_size=(1, 1), stride=(1, 1), bias=False)
                (7): BatchNorm2d(320, eps=1e-05, momentum=0.1, affine=True, track_running_stats=True)
              )
            )
          )
          (conv): Sequential(
            (0): Conv2d(320, 1280, kernel_size=(1, 1), stride=(1, 1), bias=False)
            (1): BatchNorm2d(1280, eps=1e-05, momentum=0.1, affine=True, track_running_stats=True)
            (2): ReLU6(inplace=True)
          )
          (avgpool): AdaptiveAvgPool2d(output_size=(1, 1))
          (classifier): Linear(in_features=1280, out_features=10, bias=True)
        )
      )
    )
    (dist_modules): ModuleList(
      (0): ResidualEncodedModule(
        (logit): Sequential(
          (0): Conv2d(768, 768, kernel_size=(1, 1), stride=(1, 1))
          (1): BatchNorm2d(768, eps=1e-05, momentum=0.1, affine=True, track_running_stats=True)
          (2): Sigmoid()
        )
        (residual_encoder): Sequential(
          (0): Conv2d(768, 768, kernel_size=(3, 3), stride=(1, 1), padding=(1, 1))
          (1): BatchNorm2d(768, eps=1e-05, momentum=0.1, affine=True, track_running_stats=True)
          (2): ReLU6(inplace=True)
        )
      )
      (1): DeiTModule()
    )
  )
)

 Optimizer: SGD (
Parameter Group 0
    dampening: 0
    differentiable: False
    foreach: None
    lr: 0.01
    maximize: False
    momentum: 0.9
    nesterov: False
    weight_decay: 0.0
)
 Epoch: 1, lr: 1.0e-02, train_loss: 2.0244, train_acc: 0.1682 test_loss: 1.9337, test_acc: 0.2188, best: 0.2188, time: 0:22:16
…
