…
	 seed                 : 0
	 devices              : 0
	 dataset              : STL10
	 im_size              : 128
	 batch_size           : 8
	 architecture         : mobilenetv3_small-1-22121111211
	 pretrained           : 
	 epochs               : 300
	 learning_rate        : 0.01
	 lr_interval          : 0.6 0.8 0.9
	 lr_reduce            : 5
	 optimizer            : SGD
	 log                  : True
	 test_only            : False
	 dont_save            : False

 Model: DataParallel(
  (module): Network(
    (net): MobileNetV3(
      (features): Sequential(
        (0): Sequential(
          (0): Conv2d(3, 16, kernel_size=(3, 3), stride=(1, 1), padding=(1, 1), bias=False)
          (1): BatchNorm2d(16, eps=1e-05, momentum=0.1, affine=True, track_running_stats=True)
          (2): h_swish(
            (sigmoid): h_sigmoid(
              (relu): ReLU6(inplace=True)
            )
          )
        )
        (1): InvertedResidual(
          (conv): Sequential(
            (0): Conv2d(16, 16, kernel_size=(3, 3), stride=(2, 2), padding=(1, 1), groups=16, bias=False)
            (1): BatchNorm2d(16, eps=1e-05, momentum=0.1, affine=True, track_running_stats=True)
            (2): ReLU(inplace=True)
            (3): SELayer(
              (avg_pool): AdaptiveAvgPool2d(output_size=1)
              (fc): Sequential(
                (0): Linear(in_features=16, out_features=8, bias=True)
                (1): ReLU(inplace=True)
                (2): Linear(in_features=8, out_features=16, bias=True)
                (3): h_sigmoid(
                  (relu): ReLU6(inplace=True)
                )
              )
            )
            (4): Conv2d(16, 16, kernel_size=(1, 1), stride=(1, 1), bias=False)
            (5): BatchNorm2d(16, eps=1e-05, momentum=0.1, affine=True, track_running_stats=True)
          )
        )
        (2): InvertedResidual(
          (conv): Sequential(
            (0): Conv2d(16, 72, kernel_size=(1, 1), stride=(1, 1), bias=False)
            (1): BatchNorm2d(72, eps=1e-05, momentum=0.1, affine=True, track_running_stats=True)
            (2): ReLU(inplace=True)
            (3): Conv2d(72, 72, kernel_size=(3, 3), stride=(2, 2), padding=(1, 1), groups=72, bias=False)
            (4): BatchNorm2d(72, eps=1e-05, momentum=0.1, affine=True, track_running_stats=True)
            (5): Identity()
            (6): ReLU(inplace=True)
            (7): Conv2d(72, 24, kernel_size=(1, 1), stride=(1, 1), bias=False)
            (8): BatchNorm2d(24, eps=1e-05, momentum=0.1, affine=True, track_running_stats=True)
          )
        )
        (3): InvertedResidual(
          (conv): Sequential(
            (0): Conv2d(24, 88, kernel_size=(1, 1), stride=(1, 1), bias=False)
            (1): BatchNorm2d(88, eps=1e-05, momentum=0.1, affine=True, track_running_stats=True)
            (2): ReLU(inplace=True)
            (3): Conv2d(88, 88, kernel_size=(3, 3), stride=(1, 1), padding=(1, 1), groups=88, bias=False)
            (4): BatchNorm2d(88, eps=1e-05, momentum=0.1, affine=True, track_running_stats=True)
            (5): Identity()
            (6): ReLU(inplace=True)
            (7): Conv2d(88, 24, kernel_size=(1, 1), stride=(1, 1), bias=False)
            (8): BatchNorm2d(24, eps=1e-05, momentum=0.1, affine=True, track_running_stats=True)
          )
        )
        (4): InvertedResidual(
          (conv): Sequential(
            (0): Conv2d(24, 96, kernel_size=(1, 1), stride=(1, 1), bias=False)
            (1): BatchNorm2d(96, eps=1e-05, momentum=0.1, affine=True, track_running_stats=True)
            (2): h_swish(
              (sigmoid): h_sigmoid(
                (relu): ReLU6(inplace=True)
              )
            )
            (3): Conv2d(96, 96, kernel_size=(5, 5), stride=(2, 2), padding=(2, 2), groups=96, bias=False)
            (4): BatchNorm2d(96, eps=1e-05, momentum=0.1, affine=True, track_running_stats=True)
            (5): SELayer(
              (avg_pool): AdaptiveAvgPool2d(output_size=1)
              (fc): Sequential(
                (0): Linear(in_features=96, out_features=24, bias=True)
                (1): ReLU(inplace=True)
                (2): Linear(in_features=24, out_features=96, bias=True)
                (3): h_sigmoid(
                  (relu): ReLU6(inplace=True)
                )
              )
            )
            (6): h_swish(
              (sigmoid): h_sigmoid(
                (relu): ReLU6(inplace=True)
              )
            )
            (7): Conv2d(96, 40, kernel_size=(1, 1), stride=(1, 1), bias=False)
            (8): BatchNorm2d(40, eps=1e-05, momentum=0.1, affine=True, track_running_stats=True)
          )
        )
        (5): InvertedResidual(
          (conv): Sequential(
            (0): Conv2d(40, 240, kernel_size=(1, 1), stride=(1, 1), bias=False)
            (1): BatchNorm2d(240, eps=1e-05, momentum=0.1, affine=True, track_running_stats=True)
            (2): h_swish(
              (sigmoid): h_sigmoid(
                (relu): ReLU6(inplace=True)
              )
            )
            (3): Conv2d(240, 240, kernel_size=(5, 5), stride=(1, 1), padding=(2, 2), groups=240, bias=False)
            (4): BatchNorm2d(240, eps=1e-05, momentum=0.1, affine=True, track_running_stats=True)
            (5): SELayer(
              (avg_pool): AdaptiveAvgPool2d(output_size=1)
              (fc): Sequential(
                (0): Linear(in_features=240, out_features=64, bias=True)
                (1): ReLU(inplace=True)
                (2): Linear(in_features=64, out_features=240, bias=True)
                (3): h_sigmoid(
                  (relu): ReLU6(inplace=True)
                )
              )
            )
            (6): h_swish(
              (sigmoid): h_sigmoid(
                (relu): ReLU6(inplace=True)
              )
            )
            (7): Conv2d(240, 40, kernel_size=(1, 1), stride=(1, 1), bias=False)
            (8): BatchNorm2d(40, eps=1e-05, momentum=0.1, affine=True, track_running_stats=True)
          )
        )
        (6): InvertedResidual(
          (conv): Sequential(
            (0): Conv2d(40, 240, kernel_size=(1, 1), stride=(1, 1), bias=False)
            (1): BatchNorm2d(240, eps=1e-05, momentum=0.1, affine=True, track_running_stats=True)
            (2): h_swish(
              (sigmoid): h_sigmoid(
                (relu): ReLU6(inplace=True)
              )
            )
            (3): Conv2d(240, 240, kernel_size=(5, 5), stride=(1, 1), padding=(2, 2), groups=240, bias=False)
            (4): BatchNorm2d(240, eps=1e-05, momentum=0.1, affine=True, track_running_stats=True)
            (5): SELayer(
              (avg_pool): AdaptiveAvgPool2d(output_size=1)
              (fc): Sequential(
                (0): Linear(in_features=240, out_features=64, bias=True)
                (1): ReLU(inplace=True)
                (2): Linear(in_features=64, out_features=240, bias=True)
                (3): h_sigmoid(
                  (relu): ReLU6(inplace=True)
                )
              )
            )
            (6): h_swish(
              (sigmoid): h_sigmoid(
                (relu): ReLU6(inplace=True)
              )
            )
            (7): Conv2d(240, 40, kernel_size=(1, 1), stride=(1, 1), bias=False)
            (8): BatchNorm2d(40, eps=1e-05, momentum=0.1, affine=True, track_running_stats=True)
          )
        )
        (7): InvertedResidual(
          (conv): Sequential(
            (0): Conv2d(40, 120, kernel_size=(1, 1), stride=(1, 1), bias=False)
            (1): BatchNorm2d(120, eps=1e-05, momentum=0.1, affine=True, track_running_stats=True)
            (2): h_swish(
              (sigmoid): h_sigmoid(
                (relu): ReLU6(inplace=True)
              )
            )
            (3): Conv2d(120, 120, kernel_size=(5, 5), stride=(1, 1), padding=(2, 2), groups=120, bias=False)
            (4): BatchNorm2d(120, eps=1e-05, momentum=0.1, affine=True, track_running_stats=True)
            (5): SELayer(
              (avg_pool): AdaptiveAvgPool2d(output_size=1)
              (fc): Sequential(
                (0): Linear(in_features=120, out_features=32, bias=True)
                (1): ReLU(inplace=True)
                (2): Linear(in_features=32, out_features=120, bias=True)
                (3): h_sigmoid(
                  (relu): ReLU6(inplace=True)
                )
              )
            )
            (6): h_swish(
              (sigmoid): h_sigmoid(
                (relu): ReLU6(inplace=True)
              )
            )
            (7): Conv2d(120, 48, kernel_size=(1, 1), stride=(1, 1), bias=False)
            (8): BatchNorm2d(48, eps=1e-05, momentum=0.1, affine=True, track_running_stats=True)
          )
        )
        (8): InvertedResidual(
          (conv): Sequential(
            (0): Conv2d(48, 144, kernel_size=(1, 1), stride=(1, 1), bias=False)
            (1): BatchNorm2d(144, eps=1e-05, momentum=0.1, affine=True, track_running_stats=True)
            (2): h_swish(
              (sigmoid): h_sigmoid(
                (relu): ReLU6(inplace=True)
              )
            )
            (3): Conv2d(144, 144, kernel_size=(5, 5), stride=(1, 1), padding=(2, 2), groups=144, bias=False)
            (4): BatchNorm2d(144, eps=1e-05, momentum=0.1, affine=True, track_running_stats=True)
            (5): SELayer(
              (avg_pool): AdaptiveAvgPool2d(output_size=1)
              (fc): Sequential(
                (0): Linear(in_features=144, out_features=40, bias=True)
                (1): ReLU(inplace=True)
                (2): Linear(in_features=40, out_features=144, bias=True)
                (3): h_sigmoid(
                  (relu): ReLU6(inplace=True)
                )
              )
            )
            (6): h_swish(
              (sigmoid): h_sigmoid(
                (relu): ReLU6(inplace=True)
              )
            )
            (7): Conv2d(144, 48, kernel_size=(1, 1), stride=(1, 1), bias=False)
            (8): BatchNorm2d(48, eps=1e-05, momentum=0.1, affine=True, track_running_stats=True)
          )
        )
        (9): InvertedResidual(
          (conv): Sequential(
            (0): Conv2d(48, 288, kernel_size=(1, 1), stride=(1, 1), bias=False)
            (1): BatchNorm2d(288, eps=1e-05, momentum=0.1, affine=True, track_running_stats=True)
            (2): h_swish(
              (sigmoid): h_sigmoid(
                (relu): ReLU6(inplace=True)
              )
            )
            (3): Conv2d(288, 288, kernel_size=(5, 5), stride=(2, 2), padding=(2, 2), groups=288, bias=False)
            (4): BatchNorm2d(288, eps=1e-05, momentum=0.1, affine=True, track_running_stats=True)
            (5): SELayer(
              (avg_pool): AdaptiveAvgPool2d(output_size=1)
              (fc): Sequential(
                (0): Linear(in_features=288, out_features=72, bias=True)
                (1): ReLU(inplace=True)
                (2): Linear(in_features=72, out_features=288, bias=True)
                (3): h_sigmoid(
                  (relu): ReLU6(inplace=True)
                )
              )
            )
            (6): h_swish(
              (sigmoid): h_sigmoid(
                (relu): ReLU6(inplace=True)
              )
            )
            (7): Conv2d(288, 96, kernel_size=(1, 1), stride=(1, 1), bias=False)
            (8): BatchNorm2d(96, eps=1e-05, momentum=0.1, affine=True, track_running_stats=True)
          )
        )
        (10): InvertedResidual(
          (conv): Sequential(
            (0): Conv2d(96, 576, kernel_size=(1, 1), stride=(1, 1), bias=False)
            (1): BatchNorm2d(576, eps=1e-05, momentum=0.1, affine=True, track_running_stats=True)
            (2): h_swish(
              (sigmoid): h_sigmoid(
                (relu): ReLU6(inplace=True)
              )
            )
            (3): Conv2d(576, 576, kernel_size=(5, 5), stride=(1, 1), padding=(2, 2), groups=576, bias=False)
            (4): BatchNorm2d(576, eps=1e-05, momentum=0.1, affine=True, track_running_stats=True)
            (5): SELayer(
              (avg_pool): AdaptiveAvgPool2d(output_size=1)
              (fc): Sequential(
                (0): Linear(in_features=576, out_features=144, bias=True)
                (1): ReLU(inplace=True)
                (2): Linear(in_features=144, out_features=576, bias=True)
                (3): h_sigmoid(
                  (relu): ReLU6(inplace=True)
                )
              )
            )
            (6): h_swish(
              (sigmoid): h_sigmoid(
                (relu): ReLU6(inplace=True)
              )
            )
            (7): Conv2d(576, 96, kernel_size=(1, 1), stride=(1, 1), bias=False)
            (8): BatchNorm2d(96, eps=1e-05, momentum=0.1, affine=True, track_running_stats=True)
          )
        )
        (11): InvertedResidual(
          (conv): Sequential(
            (0): Conv2d(96, 576, kernel_size=(1, 1), stride=(1, 1), bias=False)
            (1): BatchNorm2d(576, eps=1e-05, momentum=0.1, affine=True, track_running_stats=True)
            (2): h_swish(
              (sigmoid): h_sigmoid(
                (relu): ReLU6(inplace=True)
              )
            )
            (3): Conv2d(576, 576, kernel_size=(5, 5), stride=(1, 1), padding=(2, 2), groups=576, bias=False)
            (4): BatchNorm2d(576, eps=1e-05, momentum=0.1, affine=True, track_running_stats=True)
            (5): SELayer(
              (avg_pool): AdaptiveAvgPool2d(output_size=1)
              (fc): Sequential(
                (0): Linear(in_features=576, out_features=144, bias=True)
                (1): ReLU(inplace=True)
                (2): Linear(in_features=144, out_features=576, bias=True)
                (3): h_sigmoid(
                  (relu): ReLU6(inplace=True)
                )
              )
            )
            (6): h_swish(
              (sigmoid): h_sigmoid(
                (relu): ReLU6(inplace=True)
              )
            )
            (7): Conv2d(576, 96, kernel_size=(1, 1), stride=(1, 1), bias=False)
            (8): BatchNorm2d(96, eps=1e-05, momentum=0.1, affine=True, track_running_stats=True)
          )
        )
      )
      (conv): Sequential(
        (0): Conv2d(96, 576, kernel_size=(1, 1), stride=(1, 1), bias=False)
        (1): BatchNorm2d(576, eps=1e-05, momentum=0.1, affine=True, track_running_stats=True)
        (2): h_swish(
          (sigmoid): h_sigmoid(
            (relu): ReLU6(inplace=True)
          )
        )
      )
      (avgpool): AdaptiveAvgPool2d(output_size=(1, 1))
      (classifier): Sequential(
        (0): Linear(in_features=576, out_features=1024, bias=True)
        (1): h_swish(
          (sigmoid): h_sigmoid(
            (relu): ReLU6(inplace=True)
          )
        )
        (2): Dropout(p=0.2, inplace=False)
        (3): Linear(in_features=1024, out_features=10, bias=True)
      )
    )
  )
)

 Optimizer: SGD (
Parameter Group 0
    dampening: 0
    differentiable: False
    foreach: None
    lr: 0.01
    maximize: False
    momentum: 0.9
    nesterov: False
    weight_decay: 0.0
)
 Epoch: 1, lr: 1.0e-02, train_loss: 2.1459, train_acc: 0.1720 test_loss: 1.9422, test_acc: 0.2409, best: 0.2409, time: 0:00:23
 Epoch: 2, lr: 1.0e-02, train_loss: 2.0645, train_acc: 0.2086 test_loss: 1.8143, test_acc: 0.2816, best: 0.2816, time: 0:00:24
…
